Model: "model"
_________________________________________________________________
 Layer (type)                Output Shape              Param #   
=================================================================
 input_1 (InputLayer)        [(None, 250, 250, 2)]     0         
                                                                 
 conv2d (Conv2D)             (None, 248, 248, 64)      1216      
                                                                 
 average_pooling2d (AverageP  (None, 124, 124, 64)     0         
 ooling2D)                                                       
                                                                 
 conv2d_1 (Conv2D)           (None, 122, 122, 32)      18464     
                                                                 
 average_pooling2d_1 (Averag  (None, 61, 61, 32)       0         
 ePooling2D)                                                     
                                                                 
 conv2d_2 (Conv2D)           (None, 59, 59, 16)        4624      
                                                                 
 average_pooling2d_2 (Averag  (None, 29, 29, 16)       0         
 ePooling2D)                                                     
                                                                 
 flatten (Flatten)           (None, 13456)             0         
                                                                 
 dense (Dense)               (None, 128)               1722496   
                                                                 
 dense_1 (Dense)             (None, 225)               29025     
                                                                 
 dropout_1 (Dropout)         (None, 225)               0         
                                                                 
 dense_2 (Dense)             (None, 5)                 1130      
                                                                 
=================================================================
Total params: 1,776,955
Trainable params: 1,776,955
Non-trainable params: 0
_________________________________________________________________
None
Epoch 1/100
2022-11-30 15:23:37.213878: I tensorflow/compiler/xla/stream_executor/cuda/cuda_dnn.cc:428] Loaded cuDNN version 8100
…
