Model: "model"
_________________________________________________________________
 Layer (type)                Output Shape              Param #   
=================================================================
 input_1 (InputLayer)        [(None, 150, 150, 2)]     0         
                                                                 
 conv2d (Conv2D)             (None, 148, 148, 64)      1216      
                                                                 
 average_pooling2d (AverageP  (None, 74, 74, 64)       0         
 ooling2D)                                                       
                                                                 
 conv2d_1 (Conv2D)           (None, 72, 72, 32)        18464     
                                                                 
 average_pooling2d_1 (Averag  (None, 36, 36, 32)       0         
 ePooling2D)                                                     
                                                                 
 conv2d_2 (Conv2D)           (None, 34, 34, 16)        4624      
                                                                 
 average_pooling2d_2 (Averag  (None, 17, 17, 16)       0         
 ePooling2D)                                                     
                                                                 
 flatten (Flatten)           (None, 4624)              0         
                                                                 
 dense (Dense)               (None, 128)               592000    
                                                                 
 dense_1 (Dense)             (None, 225)               29025     
                                                                 
 dropout_1 (Dropout)         (None, 225)               0         
                                                                 
 dense_2 (Dense)             (None, 5)                 1130      
                                                                 
=================================================================
Total params: 646,459
Trainable params: 646,459
Non-trainable params: 0
_________________________________________________________________
None
Epoch 1/100
2022-11-30 17:07:58.285161: I tensorflow/compiler/xla/stream_executor/cuda/cuda_dnn.cc:428] Loaded cuDNN version 8100
…
