Model: "model"
_________________________________________________________________
 Layer (type)                Output Shape              Param #   
=================================================================
 input_1 (InputLayer)        [(None, 300, 300, 2)]     0         
                                                                 
 conv2d (Conv2D)             (None, 298, 298, 64)      1216      
                                                                 
 average_pooling2d (AverageP  (None, 149, 149, 64)     0         
 ooling2D)                                                       
                                                                 
 conv2d_1 (Conv2D)           (None, 147, 147, 32)      18464     
                                                                 
 average_pooling2d_1 (Averag  (None, 73, 73, 32)       0         
 ePooling2D)                                                     
                                                                 
 conv2d_2 (Conv2D)           (None, 71, 71, 16)        4624      
                                                                 
 average_pooling2d_2 (Averag  (None, 35, 35, 16)       0         
 ePooling2D)                                                     
                                                                 
 flatten (Flatten)           (None, 19600)             0         
                                                                 
 dense (Dense)               (None, 128)               2508928   
                                                                 
 dense_1 (Dense)             (None, 225)               29025     
                                                                 
 dropout_1 (Dropout)         (None, 225)               0         
                                                                 
 dense_2 (Dense)             (None, 5)                 1130      
                                                                 
=================================================================
Total params: 2,563,387
Trainable params: 2,563,387
Non-trainable params: 0
_________________________________________________________________
None
Epoch 1/100
2022-11-30 15:59:43.470179: I tensorflow/compiler/xla/stream_executor/cuda/cuda_dnn.cc:428] Loaded cuDNN version 8100
…
